pacman_model.pth (torch, 722670 bytes, 26 tensors)

stack.layer1.weight f4 [222, 111]
000000 fc 9e 54 3b 80 01 12 3d 49 9a 8c bb d2 ae 4e bd
       0.0032443395 0.03564596 -0.004290853 -0.05045969
000010 44 4e 3f bd ff 04 c7 3d 0d ab 26 be 38 06 03 3c
       -0.0467055 0.0971775 -0.16276188 0.007997088
000020 09 1f 9e bd b6 0e 96 3c bd fb b8 bd f6 ec 33 3d
       -0.07720763 0.018317562 -0.0903239 0.043927155
000030 0b d5 0a bd 2b 46 da 3d f6 c6 90 bd 7f 5f ff 3d
       -0.03389458 0.10657915 -0.07069199 0.12469386
000040 f6 1f a8 bd 15 d8 22 bd ee 65 4d bd a0 14 56 3d
       -0.08209221 -0.039756853 -0.050146036 0.052265763
000050 35 98 50 3c 7c 0a 3f 3c c3 34 26 bd b5 e2 71 3d
       0.0127316015 0.0116602145 -0.04057766 0.059054095
000060 ca 73 13 bd d1 fa 2e bd b9 c0 67 3c 97 73 05 3d
       -0.035999097 -0.042719666 0.01414507 0.03258094
000070 e6 26 e7 bd fc 36 8a 3d 76 c8 8d bd dc 59 88 bc
       -0.11286716 0.06748769 -0.069230005 -0.01664441
000080 78 3d 95 3d c8 12 1c 3d f8 9a 65 3d 17 c3 20 bc
       0.07287115 0.03810385 0.056055993 -0.009812138
000090 1b 7a f7 3c 59 1a e9 bc 91 8e 9d bd df e5 72 bd
       0.030209592 -0.028454946 -0.07693208 -0.059301253
0000a0 9c 38 ab bd 31 c8 a2 3d e3 fb 60 bc af 06 74 3d
       -0.08360407 0.0794834 -0.0137319295 0.059576686
0000b0 b8 b3 75 bc 5a 6c c8 3c bb 47 c9 3d 7c 9a e3 bd
       -0.014996462 0.024465729 0.098281346 -0.1111345
0000c0 82 7e 00 3d 54 3d 06 be 28 62 43 3d 32 d8 05 be
       0.031370647 -0.13109332 0.04770103 -0.13070753
0000d0 a5 cc 35 bd c0 6c a6 ba 98 25 cb 39 78 80 1c be
       -0.044384617 -0.0012697205 0.00038747187 -0.15283382
0000e0 c5 e7 93 bd e2 3b ca bc 3c cb 8c 3d 8b 91 d3 bd
       -0.07221941 -0.024686757 0.068747014 -0.103304945
0000f0 1b f6 ae bd 8f 47 f2 3d 7b 43 9c 3c 93 31 02 bd
       -0.08543035 0.11830055 0.019075146 -0.03178556
000100 c2 14 af bc 1d 8e fb bb 40 51 b8 bc 34 2a 11 be
       -0.021372203 -0.0076768533 -0.02249968 -0.14176255
000110 c4 2c 98 bb 82 f3 a5 3d 87 f9 ac 3d f7 91 0a be
       -0.0046440084 0.08103086 0.08446031 -0.13532244
000120 59 68 21 3d c2 00 fd 3d d4 a6 0d be b0 0c 6d bd
       0.039406154 0.1235366 -0.13833171 -0.057873428
000130 11 0f b1 3d 15 d8 0d 3c 2f df 57 3d fa 8a db bd
       0.08645452 0.008657475 0.05270308 -0.10719867
000140 0f 9c fe bd 84 52 82 bb 50 c1 ba 3c f0 66 33 bc
       -0.124321096 -0.003977122 0.022797257 -0.010949835
000150 9d 46 a3 bc d6 86 d9 bc 4f a9 53 bc 5c 48 d5 3d
       -0.019931132 -0.026553553 -0.012918784 0.10414192
000160 34 fb 5e 3d 7a 29 8b 3c 95 eb 3f 3c 3f 81 bb bb
       0.054438785 0.016987551 0.011713882 -0.0057221944
000170 b7 40 20 bd 6b ab 7d bd 24 bd 07 bd 36 1f 00 3d
       -0.039124217 -0.061931055 -0.033139363 0.031279765
000180 bd 81 0e bd 3d 9c 89 3d 4c 7d 00 3e 5d e7 eb bc
       -0.034791697 0.06719253 0.12547797 -0.028796846
000190 57 77 29 bc c9 24 4d 3d 6f 6b 74 bc f8 15 0c 3d
       -0.010343394 0.05008391 -0.014918192 0.03420064
0001a0 bc ba b0 bd 9d 1e 38 3d 0a 63 2c bd 8c ce 03 bc
       -0.08629367 0.04495107 -0.04208664 -0.00804485
0001b0 31 47 9b bc 79 09 53 bd 6b 5c 81 bd 76 ca 0a bd
       -0.018954845 -0.051522706 -0.063164555 -0.033884488
0001c0 0b eb 56 3d 3f 6e 33 3d 0f f4 65 bd a5 7e 15 3d
       0.05247025 0.04380631 -0.056140956 0.03649773
0001d0 9e c8 3b bc 82 33 19 3e 03 97 84 3d bd cf 5f 3d
       -0.011461405 0.14961055 0.06474116 0.054641474
0001e0 de a3 ff 3c ce 7e bb 3c 5b 46 97 3d 1d 29 b3 3d
       0.031206068 0.022887614 0.07386466 0.08748076
0001f0 1c 3a 59 3d e2 87 39 bc 71 6f 6a 3d f3 a7 b2 3d
       0.053033933 -0.011323901 0.057235185 0.0872344
000200 5a 7f 00 3d 21 4c 1f bc 6d 17 5b 3c 3b 8b 7c 3d
       0.031371452 -0.00972274 0.013372284 0.061656218
000210 7c b1 9a 3b 0e 06 f2 3c c4 6b 71 3b 85 e2 38 3d
       0.004720865 0.029543903 0.0036837915 0.0451379
000220 c9 2e 28 3d 98 03 99 3c 77 49 c6 b9 5e 52 3d bd
       0.041060243 0.018678471 -0.00037820239 -0.04622113
000230 08 4e da bd 74 af bb 3d 5e ac e0 3c a5 9b 1e be
       -0.106594145 0.091643244 0.027425941 -0.15489061
000240 45 2e 24 3d 95 71 0e bd 3d f8 9e 3d f5 a9 ae 3c
       0.04008319 -0.03477629 0.077621914 0.021321276
000250 99 ef 50 bc a4 40 db bc 42 c2 3c 39 50 1c 45 bc
       -0.012752437 -0.026764221 0.00018001444 -0.012030676
000260 70 c4 39 bb 1d c5 50 3c 67 bb 49 3d 1e 70 ab bd
       -0.0028345846 0.012742308 0.049250986 -0.08370994
000270 0d ae 25 3e 23 9c f3 bd f6 70 9b 3b 44 e7 92 bd
       0.16179676 -0.11895015 0.0047436906 -0.07173017
000280 19 d7 e0 3c 45 be d5 bd 1c 51 01 bd 61 4c a2 bd
       0.027446317 -0.10436682 -0.031571493 -0.07924724
000290 39 83 57 3d 43 f0 11 3d d6 1d 78 3d 30 5a 29 bc
       0.052615378 0.035629522 0.06057533 -0.010336444
0002a0 ed 9a 17 bd 7a 98 a8 3b 1a 4f c6 3d ae ed d2 bd
       -0.037012983 0.0051451297 0.09683056 -0.1029924
0002b0 e0 8c b0 bd 79 1f bf bd d3 ab 0b 3e 8c 3f 90 3d
       -0.0862062 -0.09332175 0.13639764 0.070433706
0002c0 a3 ec f8 bc 21 7a f2 bd 93 49 42 bd 18 31 9c 3d
       -0.030386275 -0.118397005 -0.047433447 0.076265514
0002d0 79 a9 31 bb 39 41 90 bd a6 17 b9 3d 88 96 22 3e
       -0.002710907 -0.0704369 0.09037714 0.15877736
0002e0 a7 b6 fa bd 5f f0 76 bd 32 d0 70 3c f9 07 5a 3d
       -0.122418694 -0.06028783 0.014698075 0.05323026
0002f0 a9 b6 8f bd 92 90 30 3c 53 f3 68 bd a4 f5 cf 3d
       -0.070172615 0.010776656 -0.056872677 0.10154274
000300 ae c7 06 bd 34 da 4c 3d 1d 61 90 3c 61 d4 44 3c
       -0.032905273 0.050012782 0.017624432 0.012013526
000310 9f 9b 78 3c 1e 61 7c 3d 9f c9 ca 3d 7c 7f b7 3c
       0.015173822 0.061616056 0.099017374 0.022399656
000320 86 33 6d bc ca 7d 87 bd 64 f9 bd bd dd 30 e1 bc
       -0.014477616 -0.06615789 -0.09276083 -0.02748912
000330 06 ea c7 3d 30 17 a4 3d e7 23 fa bc 48 83 2e bd
       0.09761433 0.08012235 -0.030534698 -0.04260567
000340 3f ba ae 3d 87 a1 0b 3d d0 6d df 3d a8 2e 55 3d
       0.085316174 0.03408959 0.10909617 0.052046448
000350 c4 da 32 3d ef 72 ce bd 03 27 ab 3d 19 74 07 3d
       0.043665662 -0.100805156 0.0835705 0.033069704
000360 fd d6 ea bc 2e 1d 14 3e e4 57 39 3d be 84 82 bc
       -0.028666968 0.14464256 0.045249835 -0.015932437
000370 dc 66 08 3e ce 1e a7 bc 03 89 00 bd 73 91 ea bc
       0.13320488 -0.020400431 -0.031380665 -0.028633809
000380 ec 3f f2 3c 83 61 b0 bc a2 88 e5 bd 82 c8 c0 3d
       0.029571496 -0.021530872 -0.11207701 0.09413244
000390 70 d4 e9 bc 74 15 26 3d 9b e1 e7 ba 2f 0e 94 3c
       -0.02854368 0.040547803 -0.0017691137 0.01807317
0003a0 01 07 12 be c4 50 ee 3c a9 7b 55 3d 26 08 a1 3d
       -0.14260484 0.029091246 0.052119885 0.07862882
0003b0 a9 79 d5 bd 73 08 62 3d 21 3d dd bc 3e 33 e0 3d
       -0.104235955 0.05518384 -0.027006688 0.10947274
0003c0 20 c4 b6 3c 1d 09 6e 3d 39 81 0b bd 89 e0 0c 3d
       0.022310317 0.05811416 -0.034058783 0.03439382
0003d0 6f fa 04 be ba 41 49 bd 27 f1 98 3d 5a e4 18 bc
       -0.12986158 -0.049134947 0.07467871 -0.009331787
0003e0 ad 70 2a 3d b9 af 6f 3b c5 f1 d4 3c 12 ca b0 3d
       0.041611362 0.0036573245 0.025994191 0.08632292
0003f0 44 ca 8f 3c e8 64 e8 3d df 2b 08 3c 40 3e 26 bd
       0.017552502 0.11347371 0.008311241 -0.04058671

stack.layer1.bias f4 [222]
000000 1c 9b 4e 3d c0 7a 72 bc b4 a0 a6 bc 10 dd 46 bd
       0.050440893 -0.014799774 -0.020340301 -0.048550665
000010 85 49 9e bd 1f 7f 9b bd ba 4b 91 bd 3c 29 23 bd
       -0.077288665 -0.07592606 -0.07094522 -0.039834246
000020 f1 bd c6 3c 40 c0 b7 3b 27 b5 29 bd fc 5f 4d bc
       0.024260493 0.005607635 -0.041432526 -0.0125350915
000030 1e eb 95 bd 87 30 1f bd 73 dc 00 3d 3d 15 21 3c
       -0.07320236 -0.03886464 0.031460237 0.009831724
000040 c8 28 9f bd 55 81 11 3d 3d 09 4a bc 93 c5 82 bd
       -0.0777145 0.03552373 -0.012331304 -0.063853405
000050 5f 56 6e 3d eb 97 4c bd 01 1b 12 3d 1e b3 af 3d
       0.05818784 -0.049949568 0.035670284 0.08579086
000060 24 36 9e 3c d1 ae ff bc 1c 4a 4b 3d 23 1a 9e 3b
       0.019312926 -0.031211289 0.049631223 0.004824893
000070 14 ec 81 3d 30 bb d1 3d 6a a4 52 3d e7 7c 84 bd
       0.063438565 0.10240781 0.05142633 -0.06469136
000080 5c 25 c8 3c ad 4d a9 3d 1e 73 6d bd 6f 12 a6 bd
       0.024431877 0.082667686 -0.057971112 -0.08108985
000090 32 f2 39 bd cb 5c b8 bd 1a db 12 ba 62 33 ae 3c
       -0.04539699 -0.09002074 -0.00056021067 0.021264736
0000a0 48 bc 30 3d 31 57 4e 3d 4f 6b a7 3d 93 fb 78 3d
       0.04314831 0.05037612 0.08174764 0.060786795
0000b0 7c 5c c0 3d 8e df 1e 3d 15 4c 04 3c 47 19 f4 3b
       0.0939264 0.038787417 0.00807478 0.0074493024
0000c0 f7 df d7 3d 91 60 dc 3b a5 ea af bc cb 7f 9c 3d
       0.10540765 0.006725379 -0.021474192 0.07641562
0000d0 b3 be 46 3d 92 68 48 bd 0c 58 9c bd 4e 78 18 3d
       0.04852171 -0.04892785 -0.07633981 0.037224106
0000e0 97 39 a4 bc 40 ee 18 bd 36 3e 95 3d f4 44 ab bd
       -0.020046992 -0.037336588 0.072872564 -0.08362761
0000f0 70 16 02 bd e2 cc c2 3d f8 97 15 3b de 5d 2f 3d
       -0.03175968 0.095117345 0.0022826176 0.042814128
000100 28 0b 8a 3d de e3 36 3c 9d c3 02 3c 0f a5 24 3d
       0.06740409 0.011162726 0.007981208 0.040196475
000110 53 d7 8b bd 61 26 dc 3d 35 9c 90 3c 7c 2b 7d 3a
       -0.06828179 0.10749508 0.01765261 0.0009657664
000120 7c 2a c0 bd 7d 67 82 bd 2c 45 0f bd 2c 18 03 3d
       -0.09383103 -0.06367395 -0.034978077 0.032005474
000130 8d 58 93 bc e0 35 4f 3c aa 86 0f bc c7 87 9f bc
       -0.01798656 0.012647122 -0.008760134 -0.019473923
000140 b9 33 07 bc 40 a7 14 b9 e5 b7 5c 3c 40 d1 00 3d
       -0.008252078 -0.00014176685 0.013471578 0.031449556
000150 96 2b 9a bd 13 1c 0b bc 4a d9 2e 3d 5f 09 68 bd
       -0.075278446 -0.00849058 0.04268769 -0.056649562
000160 ff 4d 58 3d 49 49 b8 bb d7 2e ba bd 7f 56 42 bd
       0.052808758 -0.0056239706 -0.09090965 -0.04744577
000170 97 dc 91 bd 42 ff 2b 3d 2b d7 d6 3d 6f 0f aa 3d
       -0.07122152 0.04199148 0.10490259 0.08303725
000180 1c ef c2 3c 4c ca f8 ba 6a 4e 96 3c f1 a0 40 bd
       0.023795657 -0.0018981188 0.018347938 -0.047028486
000190 63 6a 62 bc 55 ba c5 bd 92 ba 40 bd b1 fa 85 bd
       -0.01381931 -0.09654681 -0.047052927 -0.06541956
0001a0 ba b9 49 3d 82 c6 c2 bd de d0 f7 3d 75 d4 24 bd
       0.04924939 -0.095105186 0.12100385 -0.040241677
0001b0 50 9c 1e bd f7 b9 72 bd 1f d3 2a bd a5 6c aa 3d
       -0.03872329 -0.05925938 -0.041705247 0.083215035
0001c0 a3 03 3a bd 23 16 64 3d 44 7d 1e bd ad ff 39 bd
       -0.045413624 0.055685174 -0.03869368 -0.045409847
0001d0 c9 03 a9 bd dc b8 42 3d 20 fc 9d bc e1 f5 b1 3c
       -0.08252675 0.047539577 -0.019285262 0.02172369
0001e0 86 2e e1 bd 73 d1 27 3d 80 0e 2e 3d 4a 71 f8 bc
       -0.10995202 0.04097123 0.042494297 -0.030327458
0001f0 bc 21 4f bd 14 51 b4 bd fe 6e ab 3b 56 de d9 bc
       -0.05056928 -0.08804527 0.005231737 -0.026595276
000200 36 05 c2 bd 7d 30 ca bc db d9 0b 3c 99 f5 e4 3d
       -0.0947365 -0.024681324 0.0085358275 0.111796565
000210 a0 ee 11 bd 98 33 3b 3c 1e 25 80 bd 9f 5f eb bd
       -0.03562796 0.011425875 -0.062570795 -0.11492848
000220 7c c0 c6 bd ce d8 e6 3d 30 59 a1 bd f9 61 d7 3c
       -0.09704682 0.11271821 -0.07878339 0.026291834
000230 93 f0 4b 3b 2e d8 3f bd 9b 69 1c bd 58 32 05 3d
       0.0031118735 -0.046837024 -0.03818665 0.032518715
000240 bb c7 b8 bc fc 3d 18 bc c5 7f 8d bc 40 ab 8d 3d
       -0.022556176 -0.009292122 -0.01727284 0.06917429
000250 05 7e 66 bd 9f 9c 55 bd 1e 30 84 bd b6 2c ae bd
       -0.056272525 -0.05215132 -0.0645449 -0.08504622
000260 d9 6c 6b bc da 51 0e bc c9 ba 77 bd e0 ab ac 3b
       -0.014369213 -0.008686507 -0.060480867 0.0052695125
000270 96 b2 5b ba 19 93 94 bd 39 30 c9 bb b3 52 84 bd
       -0.00083807984 -0.07254619 -0.006139782 -0.06461086
000280 07 e7 94 3b bc ab da bd 8f 75 c1 3d 55 5a bc 3c
       0.004544142 -0.10677287 0.09446251 0.022992292
000290 35 27 da 3d 5b a1 b1 3c eb b0 7f bd e9 ba 24 bc
       0.106520094 0.021683386 -0.06242458 -0.0100543285
0002a0 36 2a df bd 3d bf a7 bd 28 c6 d0 bd d8 8f b9 bd
       -0.10896723 -0.08190773 -0.10194045 -0.09060639
0002b0 a4 13 1f 3d a4 73 54 bc 02 af cd 3d 09 b1 e5 3c
       0.03883709 -0.012967024 0.10043146 0.028038519
0002c0 f3 12 7c bd 17 20 a9 bc e3 11 ce bd b8 b5 e3 bd
       -0.06154151 -0.020645184 -0.10062005 -0.111186445
0002d0 0e 7a 39 3d 98 fc 03 bd fb 43 db 3d ab 7d 4c 3d
       0.045282416 -0.032223314 0.107063256 0.049924534
0002e0 3e 3d af bd fa 1c 7f bd 19 f5 9f bd 3c 1c 93 bd
       -0.08556603 -0.062283494 -0.078104205 -0.0718312
0002f0 74 c8 bf 3d 69 05 69 bc b9 eb d4 ba 7d 00 f1 bc
       0.09364405 -0.014222481 -0.0016244567 -0.029419178
000300 9c 17 0e 3c 39 95 e6 bd 15 b3 2a bd f3 60 eb 3c
       0.008672621 -0.11258931 -0.041674692 0.028732752
000310 3f 57 89 3d 5f f4 67 3c 1d a0 b3 bc b9 40 c6 3d
       0.06706094 0.014157384 -0.021926934 0.096803136
000320 9a 4a 7e bd 22 dd 79 bd 96 1c d0 bd 40 fc 40 3d
       -0.062082864 -0.061001904 -0.10161702 0.047115564
000330 7f a1 80 bd 92 3f 77 bc aa 2e c3 bd a2 f2 24 bd
       -0.06280803 -0.01509084 -0.09530385 -0.040270455
000340 d6 c5 d2 3c 27 97 d4 3d 50 6d 4e 3c 77 95 9e bd
       0.025729101 0.103803925 0.012599304 -0.07743352
000350 ea 65 94 bc 69 6b 21 bd 9e fb 61 3d f0 4f 78 bd
       -0.018115003 -0.039409075 0.0551716 -0.06062311
000360 95 df 85 bc 20 65 5f bd e6 3b 68 3d 4a d6 62 bd
       -0.016341964 -0.0545398 0.05669775 -0.055380143
000370 74 27 96 bd 03 99 c6 bd
       -0.07331744 -0.096971534

stack.normal1.weight f4 [222]
000000 f8 74 86 3f 48 60 81 3f 83 75 82 3f 91 27 80 3f
       1.0504446 1.0107508 1.0192112 1.0012075
000010 5f fe 86 3f c7 0f 82 3f 78 cb 81 3f 98 bc 82 3f
       1.0546378 1.0161065 1.0140219 1.0213804
000020 9c 2b 7f 3f cf 18 85 3f 54 e1 80 3f 51 a8 7d 3f
       0.9967592 1.0398196 1.0068765 0.99084955
000030 f7 75 86 3f 36 8c 85 3f 9b bb 85 3f ae 25 85 3f
       1.050475 1.0433414 1.0447878 1.0402124
000040 89 d3 7e 3f 10 56 7f 3f 9e 76 83 3f 36 82 79 3f
       0.9954153 0.99740696 1.0270574 0.9746431
000050 67 2c 87 3f 3b 6c 85 3f 4c 23 85 3f 79 49 88 3f
       1.0560426 1.0423654 1.0401397 1.0647422
000060 84 71 82 3f 8c 8a 86 3f 4f 4b 80 3f 8e 13 80 3f
       1.0190892 1.0511031 1.0022982 1.0005968
000070 56 81 82 3f 22 3b 88 3f 05 ff 7f 3f f3 ce 7e 3f
       1.019572 1.0643046 0.99998504 0.9953453
000080 18 40 7a 3f 2a 51 84 3f 28 38 83 3f c6 bf 80 3f
       0.9775405 1.0337269 1.0251513 1.0058525
000090 6e 1e 85 3f 11 4d 89 3f 7f f9 84 3f a4 c0 7f 3f
       1.0399911 1.0726644 1.038864 0.9990332
0000a0 48 0e 83 3f 8e 5e 8a 3f cf 4e 83 3f 24 05 7a 3f
       1.0238733 1.0810106 1.0258425 0.97664094
0000b0 94 0e 75 3f b4 b0 80 3f 7d 18 7f 3f 5c 7e 7b 3f
       0.9572537 1.0053926 0.9964674 0.98239684
0000c0 0a 54 82 3f d5 91 81 3f 36 d8 80 3f 20 df 83 3f
       1.0181897 1.012263 1.0065982 1.0302467
0000d0 df 17 81 3f 45 11 86 3f 38 a6 81 3f 7f 27 89 3f
       1.008541 1.047402 1.0128851 1.0715178
0000e0 60 e4 83 3f 95 09 84 3f e0 6b 87 3f 8e 1a 83 3f
       1.030407 1.0315424 1.0579796 1.0242479
0000f0 34 1c 7e 3f ee 8d 83 3f 4e 77 81 3f 49 d0 82 3f
       0.99261785 1.0277689 1.0114534 1.0219814
000100 81 3b 87 3f 14 12 7a 3f da 2d 84 3f 4c 17 86 3f
       1.0565034 0.97683835 1.0326493 1.047586
000110 8d 54 83 3f 34 13 83 3f e7 82 83 3f 0c 12 81 3f
       1.0260178 1.0240235 1.0274323 1.0083632
000120 ad 95 86 3f c1 dd 7b 3f 55 c4 81 3f db b2 83 3f
       1.0514427 0.98385245 1.0138041 1.0288957
000130 66 e5 80 3f 7f ae 82 3f 4f e0 86 3f 8d 52 81 3f
       1.0070007 1.0209502 1.0537204 1.0103317
000140 41 3c 84 3f be a4 80 3f 43 49 82 3f 0f 7c 83 3f
       1.0330888 1.0050275 1.0178608 1.0272235
000150 09 ac 84 3f 77 40 88 3f 87 47 80 3f fc 0a 82 3f
       1.0365001 1.0644673 1.0021828 1.0159602
000160 7f c9 85 3f a3 fb 88 3f bd 89 86 3f 66 fa 8a 3f
       1.0452117 1.0701793 1.0510784 1.0857666
000170 44 c0 80 3f 67 ee 86 3f 1e 63 82 3f b5 0d 8a 3f
       1.0058675 1.0541505 1.0186498 1.0785433
000180 2e c1 82 3f cb 7a 85 3f 79 ad 82 3f 97 4e 82 3f
       1.0215204 1.0428098 1.020919 1.0180234
000190 14 82 83 3f 01 62 7c 3f 5f 34 7b 3f a7 16 83 3f
       1.0274072 0.9858704 0.98126787 1.0241288
0001a0 58 83 80 3f bb 07 86 3f 20 e5 7e 3f 78 94 81 3f
       1.0040083 1.0471109 0.99568367 1.0123434
0001b0 cf c5 84 3f 08 52 8b 3f cf 07 7c 3f 33 99 77 3f
       1.0372866 1.0884409 0.98449415 0.9671814
0001c0 4c b5 87 3f 42 2b 86 3f d8 73 7d 3f 40 9a 87 3f
       1.0602202 1.0481951 0.9900489 1.0593948
0001d0 f6 1b 85 3f 92 3a 82 3f 3f c7 83 3f f7 32 82 3f
       1.0399158 1.0174124 1.029518 1.0171803
0001e0 e8 d4 83 3f 5c 1e 84 3f 08 d3 80 3f c7 96 82 3f
       1.0299349 1.0321765 1.0064402 1.0202264
0001f0 03 e1 7d 3f a8 3f 85 3f 56 9e 7f 3f e5 5f 8a 3f
       0.99171466 1.0410051 0.99850976 1.0810515
000200 4b 53 80 3f 4d 91 84 3f 86 7c 81 3f 39 77 82 3f
       1.0025419 1.0356842 1.0116127 1.0192634
000210 1c 65 80 3f 46 a1 80 3f 37 76 84 3f 06 6c 83 3f
       1.0030856 1.0049217 1.0348576 1.0267341
000220 6f 55 86 3f 7c b8 8a 3f 45 e3 83 3f 54 75 82 3f
       1.0494822 1.083755 1.0303732 1.0192056
000230 09 8b 85 3f 59 06 86 3f 1d a2 82 3f 63 2e 7e 3f
       1.0433055 1.0470687 1.0205723 0.9928953
000240 3b 55 89 3f a3 2d 7f 3f 71 05 83 3f 76 58 8c 3f
       1.0729135 0.9967901 1.0236036 1.0964496
000250 2d 94 7a 3f 77 96 80 3f 17 e9 77 3f e2 21 80 3f
       0.9788235 1.0045918 0.9684004 1.001034
000260 a0 2c 81 3f 43 f0 84 3f 7c e0 85 3f d0 6e 8a 3f
       1.0091743 1.0385822 1.0459132 1.0815067
000270 f1 c7 87 3f fa 76 84 3f 21 c6 84 3f 80 0d 86 3f
       1.0607892 1.0348809 1.0372964 1.047287
000280 fa 7c 84 3f 69 9f 84 3f 91 c0 7c 3f 9d 49 85 3f
       1.035064 1.0361148 0.98731333 1.041309
000290 2d 4e 7f 3f 8b 13 89 3f f4 a8 81 3f f3 eb 81 3f
       0.9972866 1.0709089 1.0129685 1.0150131
0002a0 ba 84 80 3f d3 b7 7b 3f 3e 45 80 3f 06 bf 82 3f
       1.0040505 0.9832737 1.0021131 1.0214546
0002b0 d8 bd 82 3f e4 41 7a 3f a1 bd 77 3f 9e 30 85 3f
       1.0214186 0.9775679 0.96773726 1.0405462
0002c0 b9 5b 89 3f 9c 71 83 3f 44 00 85 3f 8c 4f 83 3f
       1.0731117 1.0269046 1.0390706 1.0258651
0002d0 e4 76 86 3f b0 d5 87 3f b1 c4 80 3f 18 45 83 3f
       1.0505033 1.0612087 1.0060025 1.0255461
0002e0 13 b6 78 3f 74 13 7c 3f 0c 90 7c 3f 74 4f 7d 3f
       0.97152823 0.98467183 0.986573 0.9894936
0002f0 1c ab 81 3f 88 8c 86 3f 68 ff 85 3f e3 57 7f 3f
       1.0130343 1.0511637 1.0468569 0.9974348
000300 c5 08 81 3f 8c 9c 81 3f b5 db 81 3f 9a 41 81 3f
       1.0080801 1.0125899 1.0145174 1.0098145
000310 59 9f 83 3f 67 8d 86 3f fc f8 7a 3f 1d 68 85 3f
       1.0283004 1.0511903 0.9803617 1.0422398
000320 ef 67 84 3f e8 86 82 3f 1d 6e 7c 3f 5b 0c 83 3f
       1.0344218 1.019742 0.9860552 1.0238146
000330 82 47 7a 3f 28 be 82 3f 8a 20 82 3f 6f 74 83 3f
       0.9776536 1.0214281 1.016618 1.0269908
000340 53 3b 88 3f 39 06 83 3f 2d 66 86 3f 05 dd 83 3f
       1.0643104 1.0236274 1.0499932 1.0301825
000350 cc 13 83 3f f8 23 83 3f af 55 80 3f d5 f5 82 3f
       1.0240417 1.0245352 1.0026149 1.0231272
000360 09 6d 82 3f 5c 12 83 3f 5f 46 80 3f 16 b6 88 3f
       1.0189525 1.0239978 1.0021476 1.0680568
000370 7c c1 6f 3f bc 22 8c 3f
       0.9365461 1.09481

stack.normal1.bias f4 [222]
000000 c8 65 15 be 03 7d c0 bd b8 9f 17 be ba 88 03 be
       -0.14589608 -0.09398844 -0.14807022 -0.12845126
000010 56 5d c5 bd 6c 21 b6 bd 8b 20 a7 bd d9 81 a6 bd
       -0.09636943 -0.088930935 -0.08160504 -0.08130235
000020 99 67 ff bd 7d 79 cb bd 82 e8 9b bd bf 99 a2 bd
       -0.124709316 -0.099352814 -0.07612707 -0.07939481
000030 87 d2 fb bd 17 6a 08 be d5 c4 f5 bd ab 32 b4 bd
       -0.12296014 -0.1332172 -0.12000433 -0.08798727
000040 9e 54 d9 bd b1 b8 c0 bd 59 23 c9 bd 12 c8 11 be
       -0.106118426 -0.09410227 -0.09821195 -0.14236477
000050 ee b6 09 be 6d b1 8c bd e4 39 a8 bd 75 6d 08 be
       -0.13448688 -0.06869779 -0.08214167 -0.13323005
000060 13 43 04 be b9 f9 fb bd 94 be 10 be 90 7b de bd
       -0.12916212 -0.1230349 -0.141352 -0.108634114
000070 75 79 0f be 57 75 11 bd e2 46 93 bd 89 a5 c5 bd
       -0.14011176 -0.035512295 -0.07191254 -0.09650714
000080 05 a0 03 be a3 94 07 be 57 ad 11 be 56 b5 d2 bd
       -0.12854011 -0.13240294 -0.1422628 -0.10288493
000090 a7 f6 97 bd c9 a2 2b be a1 47 cb bd 83 96 d1 bd
       -0.07420092 -0.16761316 -0.099257715 -0.10233786
0000a0 f2 e4 f6 bd 57 57 1d be 66 35 fc bd 69 40 ba bd
       -0.120553866 -0.15365349 -0.123148724 -0.090943165
0000b0 4b 98 bf bd d5 1f 9b bd 6f c7 f9 bd c2 73 8a bd
       -0.093552195 -0.07574431 -0.12196242 -0.0676036
0000c0 9b ff ca bd 0b 1f 7f bc c8 61 ad bd 7b 72 07 be
       -0.09912034 -0.015571366 -0.08465916 -0.13227265
0000d0 96 d6 e0 bd 33 da df bd 43 39 05 be e1 13 94 bd
       -0.10978429 -0.1093029 -0.13010125 -0.07230354
0000e0 f0 e1 0d be 63 ab 88 bd 0b 47 11 be 40 7e c4 bd
       -0.1385572 -0.066733144 -0.14187257 -0.09594393
0000f0 d2 bf b2 bd b6 c2 22 be d1 69 8a bd 52 a8 02 be
       -0.08727993 -0.15894589 -0.06758464 -0.12759522
000100 ee 6a b6 bd a1 c6 cb bd e7 f1 cb bd 77 01 25 be
       -0.08907114 -0.09949995 -0.099582486 -0.1611384
000110 ec 86 bf bd a9 c9 c6 bd e2 b4 e6 bd 57 b1 dd bd
       -0.09351906 -0.09706432 -0.112649694 -0.108248405
000120 42 1a 07 be af 5a f4 bd 34 2a ad bd d2 7e 0d be
       -0.1319361 -0.11931359 -0.08455315 -0.1381791
000130 df 84 0f be 56 5b 54 bd 02 ad 01 be f4 7d a7 bd
       -0.1401553 -0.051844917 -0.12663653 -0.081783205
000140 19 81 15 be 2b 4f 19 be 9c ca 01 be ce d3 02 be
       -0.14600028 -0.14971606 -0.12674946 -0.1277611
000150 70 35 06 be 60 52 c8 bd 45 7a c8 bd 5a 73 c5 bd
       -0.13106322 -0.09781337 -0.09788946 -0.09641142
000160 66 0b 69 bd 03 20 e6 bd 8c e3 ec bd 94 95 33 be
       -0.056895636 -0.112365745 -0.115668386 -0.17537528
000170 c0 b5 62 bd 60 f4 81 bd 9b 9b ad bd 2d 6f 0f be
       -0.05534911 -0.06345439 -0.08476945 -0.14007254
000180 c5 db d2 bd 4a 07 0a be b6 53 fd bd b2 cd a5 bd
       -0.10295824 -0.13479343 -0.12369482 -0.08095874
000190 54 93 f0 bd 7d eb cc bd 5f 14 d3 bd f7 f6 07 be
       -0.117468506 -0.10005853 -0.1030662 -0.13277803
0001a0 64 05 ac bd 08 31 f7 bd 7f 4b f2 bd d9 ad e9 bd
       -0.08399466 -0.12069899 -0.11830806 -0.11410112
0001b0 e4 eb c0 bd 2f bb 1d be e4 82 a2 bd 84 99 ef bd
       -0.094199926 -0.15403436 -0.07935122 -0.11699203
0001c0 e6 e2 17 be cf 52 b3 bd 4f c8 f2 bd 44 ca f7 bd
       -0.14832649 -0.08756029 -0.11854612 -0.12099126
0001d0 c2 1e ee bd a8 00 8e bd fc 36 e2 bd c7 1f 22 be
       -0.1162696 -0.06933719 -0.11045644 -0.15832435
0001e0 99 fc 91 bd eb 02 6f bd 21 3c fd bd 97 e8 09 be
       -0.07128257 -0.058352392 -0.12364984 -0.13467632
0001f0 0a a8 f5 bd e6 eb b0 bd 91 d7 c5 bd 8d df 23 be
       -0.119949415 -0.08638744 -0.09660257 -0.16003247
000200 39 98 98 bd e6 9e d5 bd 63 2f b6 bd 52 8e d2 bd
       -0.07450909 -0.10430698 -0.08895757 -0.10281052
000210 08 7c a2 bd 26 ba 8f bd 38 2c 05 be 18 a3 c2 bd
       -0.07933813 -0.07017927 -0.1300515 -0.09503764
000220 34 78 c1 bd 2d b9 be bd 26 0f 04 be 19 50 12 be
       -0.09446755 -0.09312663 -0.12896404 -0.14288367
000230 da 53 b9 bd f9 9c ae bd 5a 21 e1 bd 36 72 be bd
       -0.090491965 -0.08526034 -0.109926894 -0.09299128
000240 d5 a3 c5 bd 6b 25 ba bd c9 99 bb bd 84 09 bb bd
       -0.09650389 -0.09089168 -0.091601916 -0.09132674
000250 29 de af bd 56 78 f9 bd 94 1a 08 be 1e 13 86 bd
       -0.085872956 -0.121811554 -0.13291389 -0.06546615
000260 9c d0 e4 bd fd 93 d7 bd 20 9e b1 bd 05 73 9b bd
       -0.111726016 -0.105262734 -0.08672738 -0.075902976
000270 93 a8 87 bd 01 c2 ff bd 5e 8f d8 bd c6 80 c4 bd
       -0.0662395 -0.12488175 -0.1057422 -0.09594874
000280 99 e0 91 bd d8 98 f3 bd 11 d3 a1 bd 0b 08 fd bd
       -0.07122917 -0.11894387 -0.07901586 -0.1235505
000290 25 9a 08 be 60 f6 0f be 78 14 8a bd 4c cf 20 be
       -0.13340051 -0.14058828 -0.06742185 -0.15704077
0002a0 68 a2 bd bd ea 4f 15 be 6d 07 84 bd e1 97 8c bd
       -0.09259492 -0.14581266 -0.06446729 -0.06864906
0002b0 a1 6e b3 bd cf d9 07 be 67 db da bd 78 33 b6 bd
       -0.08761335 -0.13266681 -0.10686379 -0.08896536
0002c0 21 ca 0c be e4 b1 b5 bd b4 b7 94 bd a2 21 1a be
       -0.13748981 -0.088718206 -0.07261601 -0.15051892
0002d0 88 f0 e8 bd 4a d5 0b be a7 c7 d5 bd a6 6d e4 bd
       -0.11374003 -0.13655582 -0.10438471 -0.11153726
0002e0 00 58 cf bd 4a 5a d3 bd e7 3d 8f bd e1 8a 15 be
       -0.101242065 -0.10319956 -0.06994229 -0.1460376
0002f0 2e 74 d4 bd c3 32 17 be b7 40 b1 bd d4 77 10 be
       -0.10373722 -0.14765458 -0.086549215 -0.14108211
000300 62 0e dc bd 68 0a f3 bd 78 a2 c4 bd 36 11 c3 bd
       -0.10744931 -0.11867219 -0.09601301 -0.09524767
000310 66 9e a8 bd 08 be 14 be 91 cb c4 bd 2c fd d9 bd
       -0.08233337 -0.14525616 -0.0960914 -0.10643992
000320 db 2b c6 bd 5f 59 d3 bd 8e d0 9a bd e9 94 18 be
       -0.096763335 -0.103197806 -0.0755931 -0.14900555
000330 9d 45 d7 bd b6 be fa bd 75 85 87 bd d5 25 11 be
       -0.105113246 -0.122434065 -0.06617252 -0.14174588
000340 c5 92 eb bd a0 c7 e9 bd a4 f1 00 be ce 6c 23 be
       -0.115026034 -0.114150286 -0.12592179 -0.15959474
000350 8e 79 11 be 1b 69 ff bd 9b fb 9c bd 1b 76 f7 bd
       -0.14206526 -0.12471219 -0.076651774 -0.12083074
000360 07 66 be bd 10 46 db bd 51 b6 1d be 4b 57 da bd
       -0.09296804 -0.10706723 -0.1540158 -0.10661181
000370 a6 00 b6 bd a9 0b 22 be
       -0.088868424 -0.1582476

stack.normal1.running_mean f4 [222]
000000 5e 61 8a be 76 73 a3 3e e1 f3 e8 bd 69 5f be be
       -0.2702741 0.31924027 -0.11374641 -0.37182167
000010 ad 80 d4 bd e6 50 05 bf 09 af 5b be 94 d5 00 bd
       -0.103761055 -0.52076566 -0.2145349 -0.031453684
000020 0d fd aa bc f5 7c 45 be 6e cd d9 bd 62 34 71 3e
       -0.020872617 -0.19285949 -0.10634886 0.23555139
000030 0d 52 99 be 30 89 48 3e c8 cf e1 3d df 7f 83 3d
       -0.29945412 0.19583583 0.11025959 0.06420874
000040 bb 63 d2 be dd 02 f5 3e 29 f4 97 3e f3 9c 01 3f
       -0.41091713 0.47853747 0.29678467 0.5063011
000050 ce 3a 82 be be 17 fd bb 1b 45 b6 3e 64 b6 89 3e
       -0.2543549 -0.0077237776 0.35599598 0.26896966
000060 7b fb a3 bd 8d cb 26 be f0 b7 5f 3e f2 de b0 3e
       -0.080069505 -0.16288586 0.2184751 0.34545094
000070 1d 57 dc bc 0d 99 88 be f3 1d c4 3e 4f f5 11 bc
       -0.026897008 -0.26679268 0.383041 -0.008908584
000080 ec 1a b0 3e 59 69 00 bf ab 22 66 3b 38 04 64 3d
       0.3439554 -0.5016075 0.0035115879 0.055668086
000090 55 7c df bd 7a 04 17 bf 57 ba 78 bc 7e 48 bb be
       -0.10912386 -0.58991206 -0.015181146 -0.36578745
0000a0 98 d8 f4 bc ac 42 bc 3e 15 cf f8 3d ce 06 b8 bd
       -0.029888436 0.36769617 0.12148873 -0.08985673
0000b0 2f 71 36 3d 07 c8 70 be 3a b8 91 be b8 04 53 be
       0.044541534 -0.23513804 -0.28460866 -0.20607269
0000c0 86 cf e2 3e 64 55 62 3e 62 27 b8 3a 91 7c f4 be
       0.44298953 0.22102886 0.0014049823 -0.47751287
0000d0 61 b7 5e 3f 26 87 1b bd 56 32 eb be 1c 85 0a 3e
       0.86998564 -0.037970684 -0.4593684 0.1352734
0000e0 6a 79 fb be ce 29 9b 3e 93 99 89 3e 6a ce 09 bf
       -0.4911607 0.30305332 0.2687498 -0.5383059
0000f0 ba 1f 05 3e d7 ab 15 3d ea 5c c0 be c1 b5 0d 3f
       0.13000384 0.036540832 -0.37570888 0.5535546
000100 eb 04 f1 3d 4f 2f d0 3e 25 64 54 be eb c2 06 bf
       0.11768516 0.40661094 -0.20741327 -0.5264117
000110 1b 60 20 bf 0b e3 42 3c 06 8a 99 bd 62 cf 09 3f
       -0.62646645 0.011894952 -0.07497029 0.53832066
000120 7a e2 f7 3d 11 6f 1a bf cb 0a 11 3b 11 16 a2 3e
       0.12103744 -0.60325724 0.0022131677 0.3165746
000130 e9 5e 14 be 28 73 5d be 35 a3 74 3e 08 7c 19 3f
       -0.1448933 -0.2162596 0.23890384 0.5995488
000140 2b f1 83 3e a3 10 35 3e 41 4f d2 bd cd bc 33 3e
       0.25769934 0.17682128 -0.10269023 0.1755249
000150 26 85 f6 bd 71 99 99 3e 69 cb 98 3d 44 43 82 be
       -0.12037115 0.2999988 0.074606724 -0.25441945
000160 64 b5 56 3d bb a1 51 3e 94 7d bf be 70 17 e7 3d
       0.05241908 0.20471852 -0.37400496 0.11283767
000170 85 44 7f be 38 3d f0 bb eb f8 e2 3e 82 32 07 3e
       -0.24928482 -0.0073315166 0.44330534 0.13202861
000180 11 56 65 be a3 d1 a2 be 36 c0 b8 3d 25 10 72 be
       -0.22396113 -0.31800565 0.09021036 -0.23638971
000190 ea d8 b3 bc 14 63 12 3e 78 9b c5 be 5e a7 a8 3d
       -0.021954019 0.14295608 -0.38595176 0.08235048
0001a0 e5 af 95 3e 4f a1 a6 3c 0b 50 f2 3e 0d a1 0f bf
       0.2923576 0.02034059 0.47326693 -0.5610512
0001b0 ff 92 b8 bc a5 fb 58 3e 87 9e 24 3e 20 40 aa 3e
       -0.02253103 0.21189745 0.16076098 0.33252048
0001c0 ca 67 c9 bb 2a 78 83 be b9 f0 2a 3f a7 94 05 bf
       -0.006146406 -0.25677615 0.66773564 -0.5217995
0001d0 06 f9 12 bf b9 27 e1 3e 85 5c 59 be 8e cd 68 bc
       -0.5741123 0.43975618 -0.212267 -0.014209164
0001e0 13 0b 90 be b4 8f 86 3e 1a 6b fb 3d ea 15 8c be
       -0.2813345 0.26281512 0.122762874 -0.2736047
0001f0 d7 53 b8 bd 90 46 49 bd 75 bb 35 3e 59 d7 84 3e
       -0.09000366 -0.04913956 0.1774729 0.25945547
000200 df d4 00 bf 24 ae 62 bd 21 42 1d bf 8f 6f dc 3e
       -0.50324816 -0.055341855 -0.6142903 0.43053862
000210 18 9a 0c 3f 7c 7f 11 3f a8 88 1b be 5b 59 87 3d
       0.5492263 0.5683515 -0.15188849 0.0660884
000220 7e 6a a1 bd 5e c0 24 3f 95 c1 17 3d 4e 28 10 3c
       -0.0788164 0.6435603 0.03704985 0.008798672
000230 a3 4c 94 ba aa 54 50 3f 00 96 62 3e 7a d3 43 bd
       -0.0011314343 0.8137919 0.22127533 -0.0478091
000240 e8 b5 df 3d c2 cd 1b 3e b2 8c 18 3b 42 c9 93 3d
       0.10923368 0.15215209 0.002327722 0.07216121
000250 17 6c a3 3e 15 0b 8f be 1d 33 96 3d 45 47 0c be
       0.31918404 -0.27938142 0.07333968 -0.13699062
000260 a7 94 8d 3e 76 c6 8f bd 0e 97 c6 bd 2a f0 db bd
       0.27652475 -0.07020275 -0.0969678 -0.10739167
000270 99 bf 07 3e 47 95 4a be 32 f0 a8 3d 49 83 22 3f
       0.13256682 -0.19783507 0.082489386 0.63481575
000280 61 8c 0c 3d de 82 1c bf c8 79 fc 3d 24 6b 68 3d
       0.034313563 -0.6113719 0.123279154 0.056742802
000290 1f 68 81 3e fd 15 08 3e 3b b6 f3 bd 63 6f 37 3e
       0.2527475 0.13289638 -0.11899992 0.17913584
0002a0 21 ca 38 bf 92 32 a8 3e 48 ee 87 bd 3a 3e 7c 3c
       -0.72183424 0.32851082 -0.066372454 0.015395695
0002b0 a1 d0 f6 3e e7 9b ec 3e 32 31 56 3e 3b e0 6c 3e
       0.48206046 0.46212694 0.20917204 0.23132412
0002c0 53 18 da 3e a0 e7 25 bd 84 2c 89 be 56 8a dd bd
       0.42596683 -0.040504098 -0.26791775 -0.10817401
0002d0 53 d2 1e 3e d7 ca 90 bd 8f 7e 36 3f 8d 0b 66 3e
       0.1550992 -0.07069939 0.71286863 0.22465344
0002e0 1f 86 9f bd f7 b5 e6 3c 2e 49 9e 3d 5d 23 fc 3e
       -0.077892534 0.02816294 0.07728802 0.4924573
0002f0 89 88 42 be e0 e6 bb bd d5 0d 69 3f 4e e6 c7 be
       -0.18997397 -0.09174895 0.9103673 -0.39042896
000300 98 8a 53 3f a4 e2 f5 be 9c 78 c2 be 7b 10 e9 be
       0.8263335 -0.48024476 -0.37982643 -0.45520386
000310 69 ec 4c 3e 15 9f 92 be 60 60 2b be dd 0a 93 3c
       0.20012058 -0.28636995 -0.16735983 0.017949516
000320 89 8e 32 3d 48 f7 03 3e 83 bf b7 be d1 41 7b bd
       0.043592963 0.12887299 -0.358883 -0.061342064
000330 b8 02 18 3e 55 3e 0b bf fa 66 d3 be 91 be 1d 3e
       0.14844787 -0.54391986 -0.41289502 0.15404727
000340 c7 d0 00 3f 30 da 9c 3e 10 5e 21 3e d5 3d 97 3d
       0.5031857 0.30635214 0.15758538 0.073848404
000350 3c 41 13 be 34 d3 b2 be 02 25 fa 3d 0a eb 3d 3e
       -0.14380354 -0.3492676 0.1221409 0.18546692
000360 e4 ad 5d b9 d5 f9 c7 3e 2f 2b 81 3c 9e f2 ea bd
       -0.00021140982 0.39057794 0.015767662 -0.11472057
000370 66 5b 1e bf 29 40 ea be
       -0.6185821 -0.45752075

stack.normal1.running_var f4 [222]
000000 e5 c7 26 3d ac 3d 77 3d 8e 0a 56 3d d4 b9 20 3d
       0.040717978 0.06036155 0.05225616 0.03923972
000010 29 ef 32 3d 24 1c a3 3d 5f 71 31 3d 55 e2 fe 3c
       0.043685112 0.07964352 0.04332101 0.031113783
000020 c1 03 55 3d 2e 0b 0f 3d 4b b7 86 3d 4e 6c aa 3d
       0.052005533 0.03492277 0.06577929 0.08321439
000030 f6 77 29 3d 79 14 df 3c b4 36 63 3d d7 16 4b 3d
       0.04137417 0.027231442 0.05547209 0.04958233
000040 b9 92 78 3d 47 0d 47 3d f8 ac 3c 3d a8 a6 75 3d
       0.0606868 0.048596647 0.046063393 0.05997339
000050 59 5d 5e 3d d2 ee f6 3c 32 6e 31 3d 87 4d e6 3c
       0.054288242 0.030143175 0.04331798 0.02811314
000060 69 47 5b 3d 91 6a 8f 3d 04 d1 27 3d 57 03 b1 3d
       0.0535349 0.07002748 0.040970817 0.08643215
000070 c2 72 8a 3d bf 01 14 3d d2 a1 21 3d 31 7b 1e 3d
       0.067601696 0.036134478 0.039460965 0.038691703
000080 97 97 71 3d 1b 7f 7b 3d 40 fb 3f 3d 57 19 3c 3d
       0.058982458 0.061400514 0.04687047 0.045922603
000090 23 42 95 3d e4 51 ee 3c 91 43 02 3d 86 ff 86 3d
       0.07288005 0.029091783 0.031802718 0.06591706
0000a0 ba 76 c6 3d 7f 9b 32 3d 8d d9 03 3d f2 1f 91 3d
       0.09690614 0.043605324 0.032189894 0.07086171
0000b0 2f 1a a9 3d 57 b8 8a 3d 67 38 49 3d 59 80 25 3d
       0.08256947 0.06773441 0.049126055 0.040405605
0000c0 df dc 2d 3d 46 40 69 3d 89 40 1d 3d ab 9f 29 3d
       0.042446967 0.05694606 0.038391624 0.041412037
0000d0 cd 44 c3 3d 31 b5 29 3d 5f 4d e1 3c 3d ed fb 3c
       0.09534607 0.041432563 0.027502714 0.030752772
0000e0 e9 f5 4d 3d 60 f0 28 3d 8a b5 2d 3d e6 78 b1 3d
       0.050283346 0.041244864 0.042409457 0.08665638
0000f0 3d a9 e4 3c 75 0c 25 3d 76 0c 31 3d 41 c3 25 3d
       0.02791273 0.040295083 0.043224774 0.04046941
000100 4e a4 10 3d ec 5d 74 3d d0 6e 02 3d 99 92 15 3d
       0.035312943 0.059659883 0.03184396 0.03651676
000110 82 3d 3a 3d 37 ea 6f 3d bf 53 b2 3d bb 41 aa 3d
       0.045468815 0.058572974 0.087073795 0.08313318
000120 c8 b6 13 3d 74 67 66 3d 5b 12 2c 3d a0 6e 39 3d
       0.036062986 0.056251004 0.042009693 0.045271516
000130 41 23 31 3d bd 00 13 3d c0 5b 59 3d 66 21 7e 3d
       0.04324651 0.035889376 0.053066015 0.06204357
000140 be 23 12 3d 0a 44 45 3d 0b 0b 1a 3d b8 8c a6 3d
       0.035678618 0.04816059 0.037608188 0.08132309
000150 ed 6c 15 3d 9d 69 10 3d e9 87 29 3d 5a e6 39 3d
       0.036480833 0.03525697 0.04138938 0.045385696
000160 71 9f a1 3d 51 bd 23 3d 4d 17 d2 3d 22 c0 e2 3c
       0.07891739 0.039975468 0.102583505 0.027679507
000170 43 6d 54 3d 81 09 8a 3d 1d 72 84 3d d8 39 7b 3d
       0.051862013 0.06740094 0.06467078 0.06133446
000180 8a fa 24 3d 0b e8 b1 3d 59 42 40 3d 19 ed 6c 3d
       0.040277995 0.08686837 0.046938274 0.0578433
000190 3b e3 50 3d 12 74 41 3d c3 e9 b2 3d fa c1 cc 3c
       0.050997954 0.047229834 0.08735993 0.024994839
0001a0 86 2d 5f 3d e1 e0 7e 3d 54 40 1b 3d 6d b4 1a 3d
       0.054486774 0.06222618 0.037903145 0.037769724
0001b0 7b c4 18 3d 32 98 39 3d e8 dc 7e 3d 9e 26 92 3d
       0.037296753 0.04531116 0.06222239 0.07136272
0001c0 75 e4 16 3d ad 0f 27 3d a3 c6 89 3d 29 ff 1d 3d
       0.036838967 0.040786434 0.0672734 0.038573418
0001d0 ef 01 06 3d d7 46 ea 3c 53 16 85 3d fb 8b 25 3d
       0.032716688 0.028598232 0.06498399 0.0404167
0001e0 4f 59 e2 3c 93 7d 3c 3d c4 d9 41 3d a8 99 70 3d
       0.027630476 0.046018194 0.047326818 0.058740288
0001f0 57 02 35 3d 90 d8 4b 3d 9e 8a 73 3d 25 a9 c7 3c
       0.044191685 0.049767077 0.059458368 0.024372647
000200 41 8e 9b 3d 35 75 5e 3d a9 26 37 3d d4 2d 89 3d
       0.07595492 0.054310996 0.044714604 0.06698194
000210 99 25 ad 3d dc 07 81 3d 21 f2 8b 3d 2f 63 7e 3d
       0.08454437 0.06300327 0.06833292 0.062106308
000220 86 10 1d 3d dc 5a 66 3d ee 3d 6c 3d 54 15 fe 3c
       0.038345836 0.056238994 0.05767625 0.03101603
000230 c8 15 20 3d 2e ad 45 3d 52 c0 5d 3d e1 85 da 3d
       0.039083272 0.04826086 0.05413849 0.106700666
000240 ab 0d f5 3c ed ba 23 3d 0b 0e 2e 3d fc cc 4a 3d
       0.029913744 0.03997319 0.04249386 0.049511895
000250 db c4 a9 3d 2a 0a 84 3d 0d a1 32 3d b2 35 00 3d
       0.082895 0.06447251 0.04361062 0.031301208
000260 bc 65 37 3d b9 09 38 3d 4a de 57 3d 8f 04 20 3d
       0.044774756 0.044931147 0.052702226 0.039066847
000270 9a 7d 1f 3d 69 ed 73 3d 2b 8a 85 3d 76 42 65 3d
       0.038938142 0.059552584 0.06520494 0.055971585
000280 a3 0a 3c 3d 08 23 29 3d 2a 92 36 3d 29 c6 2a 3d
       0.04590858 0.041293174 0.044572987 0.041692887
000290 9f 0a 44 3d f4 b7 e0 3c de 91 95 3d 41 9e 26 3d
       0.04786169 0.027431466 0.073032126 0.040678266
0002a0 ae 83 52 3d c4 68 0f 3d 1b 8c 8f 3d 98 da 2f 3d
       0.05139511 0.03501202 0.07009145 0.042933077
0002b0 7b 64 17 3d bd c2 7a 3d 9b 9b c8 3d e0 49 93 3d
       0.03696106 0.061220873 0.097953044 0.07191825
0002c0 4a 95 1f 3d 59 57 37 3d 3e ab 38 3d 2f 10 2c 3d
       0.038960733 0.044761036 0.045085184 0.04200762
0002d0 53 38 22 3d ab 5e e5 3c 2c 29 75 3d f1 15 88 3d
       0.039604496 0.027999243 0.059853718 0.0664481
0002e0 71 3f 9b 3d 85 8d 80 3d 66 8c 76 3d d6 0e 00 3e
       0.0758046 0.06276993 0.060192488 0.1250566
0002f0 42 77 2c 3d ac d0 68 3d dc 5b 34 3d 3c e5 96 3d
       0.04210592 0.05683963 0.044032916 0.07367942
000300 1d 55 44 3d 75 b9 ec 3d 21 50 1e 3d ec fc a4 3d
       0.047932733 0.115588106 0.038650636 0.080560535
000310 e3 20 3e 3d 2c a6 f0 3c c9 45 5e 3d fc 00 f9 3c
       0.046418082 0.029376112 0.05426577 0.030395977
000320 50 ee 27 3d 5e 5c 8f 3d 13 02 64 3d ed c1 71 3d
       0.040998757 0.070000395 0.05566604 0.059022833
000330 66 2c 3d 3d 81 1b 3f 3d 22 36 40 3d ed 68 3f 3d
       0.04618492 0.04665709 0.046926625 0.046730924
000340 0a ac 40 3d 2d f8 20 3d b3 65 30 3d 2a 42 2f 3d
       0.04703907 0.03929918 0.043065738 0.04278771
000350 75 7b 24 3d 1d 1f 62 3d 23 47 48 3d 1a 9e 3a 3d
       0.0401568 0.055205453 0.048895966 0.045560934
000360 48 92 79 3d 0f 9e 25 3d c8 a0 96 3d b5 90 14 3d
       0.06093052 0.04043394 0.07354885 0.036270816
000370 01 56 93 3d 65 29 bb 3c
       0.07194138 0.022846887

stack.layer2.weight f4 [222, 222]
000000 84 04 26 3d f3 56 23 bd 91 be 7a 3c 3c 31 cd b9
       0.04053165 -0.039877843 0.015304224 -0.0003913733
000010 6d 50 e0 3c ab a3 1c bd c3 17 d7 bc e4 07 d2 bd
       0.0273821 -0.038242023 -0.026256448 -0.10255411
000020 49 0b 29 3d 72 21 11 bb 78 6b e4 3c 0c 87 1e 3d
       0.041270528 -0.002214518 0.027883276 0.03870301
000030 ea 4f 17 3d ae ca 1b 3b 86 84 4f 3d 63 a9 75 3d
       0.036941446 0.002377193 0.050663494 0.059975993
000040 5a 7b d0 3c 1d 39 f1 bc 27 fb 30 bd bb 40 76 ba
       0.025449444 -0.029446179 -0.043208268 -0.0009393801
000050 d9 b1 a3 bd 04 2c 17 3d aa d1 95 bd f8 3c 8d bd
       -0.07992906 0.03690721 -0.07315381 -0.068963945
000060 60 a2 70 bd 83 4d 06 bd 1a 36 46 bd dd 62 70 3d
       -0.058748603 -0.032788765 -0.04839144 0.058688033
000070 73 cc ec bc 1c 49 45 bd 58 7a 78 3c 7e ff 1f bd
       -0.028906083 -0.048165426 0.015165888 -0.039062016
000080 2f 2e 4b 3d 81 12 05 3d c6 22 cb bc 49 1a e1 bb
       0.04960459 0.03248835 -0.024796855 -0.0068695885
000090 45 fc 66 3d 24 62 38 3c 43 17 29 bd eb ef d1 bc
       0.056392927 0.011253867 -0.04128195 -0.025627097
0000a0 e3 f1 aa bd 8e 68 d3 3c a6 2b 4d 3c 80 3b 6e bc
       -0.083469175 0.025806691 0.012522614 -0.014540553
0000b0 f0 8b 26 bd 01 30 02 3c e9 aa 0c be c6 60 8b bc
       -0.0406608 0.007946015 -0.13737072 -0.017013919
0000c0 7b ae b3 bc 77 6f bd bd 74 84 82 bd 45 dc 31 3d
       -0.021933785 -0.09249776 -0.0637292 0.043422956
0000d0 38 e6 7d bd d7 e0 37 3d ac 43 b4 3c c8 6f 9a bc
       -0.06198713 0.04489216 0.022004925 -0.01885213
0000e0 a9 ea 9c 3b e7 05 2f bd c7 77 e7 3a 5d a7 a4 3b
       0.004788716 -0.04273024 0.0017659598 0.005024834
0000f0 cb 6c 1a bc 25 06 39 bc 5a 24 cc 3c ee d8 d1 bc
       -0.009425352 -0.011292969 0.024919678 -0.025616135
000100 8e 0c 7e bc e2 a4 c8 3b aa 04 12 bd 2a 4b 7d 3d
       -0.015505923 0.006123171 -0.03564898 0.06183926
000110 31 e1 f7 3c 3a 93 72 bd 89 56 ee 3c 6f cc 23 bd
       0.030258747 -0.059222437 0.029093998 -0.039989885
000120 4a 07 8c 3d 1a 25 08 bb 09 48 01 bd c1 85 c3 3c
       0.06837328 -0.0020774067 -0.03156284 0.02386749
000130 e6 cb 26 3c 8b df 32 bd a6 e4 89 bd 68 a9 b3 3c
       0.010180449 -0.04367022 -0.06733064 0.021931365
000140 00 4e be 3b 2b 86 09 bd fb 95 be 3b c9 33 87 3c
       0.005807638 -0.03357522 0.005816219 0.016504185
000150 a7 f4 e3 bc 2d c6 80 bd de ac a5 bb b0 33 d0 bc
       -0.02782662 -0.06287799 -0.0050560078 -0.025415272
000160 5b db a2 bd ef 23 27 bd f9 76 8e 3d 8e 91 86 3c
       -0.07951995 -0.040805753 0.06956286 0.016426828
000170 e1 c2 f2 bc 94 0b 6d bc 5c 8a 70 bc fc 9c ed bc
       -0.029633941 -0.0144680925 -0.014681425 -0.02900552
000180 d9 58 84 bd 36 ca 1b 3d a8 20 31 bd b2 3f ee bc
       -0.06462259 0.03803464 -0.043244034 -0.029083107
000190 3b c1 65 3d ec 0d 2a 3d d8 17 72 bb 02 d2 2f 3d
       0.056092482 0.041517183 -0.0036940482 0.04292489
0001a0 2b 21 98 bc 4a a1 6e bc 51 84 3a 3b 83 ed ae bc
       -0.018570503 -0.0145648215 0.0028460214 -0.021353489
0001b0 67 1d 3a 3d 07 ad a3 bd 25 30 68 bd d2 9a 80 bd
       0.045438197 -0.07991987 -0.05668654 -0.0627953
0001c0 10 40 96 3c f2 ce cd 3c d0 ad 1f 3d 4a 7d 14 bd
       0.018341094 0.025123093 0.03898412 -0.036252297
0001d0 85 55 d6 bc bd d4 2d 3d 65 c5 6a bd a9 a4 2c bd
       -0.026163826 0.04243921 -0.057317156 -0.04214922
0001e0 a8 51 95 3c ab 49 94 bd c3 bb 5a 3b 35 19 73 bd
       0.018227413 -0.072406135 0.0033376075 -0.05935021
0001f0 53 ee 3a bd b5 77 d3 3c 15 94 51 bd 7e e2 0a bc
       -0.04563744 0.025813917 -0.051166613 -0.0084768515
000200 60 2b ea bc 46 59 22 3d 8b be 5e bd 50 d7 02 3d
       -0.028585136 0.03963592 -0.054380935 0.03194362
000210 df e6 17 bd e1 f9 cb bc 02 f5 67 bc ec e8 e9 3d
       -0.03708541 -0.024899425 -0.0141575355 0.114213794
000220 f8 59 80 3c 4d d3 9c bd b3 c8 25 3d c2 c7 14 bd
       0.0156679 -0.0765749 0.040474605 -0.036323316
000230 f3 2b 96 bc ac c0 3b 3d cf b2 15 3d a1 2a ad bd
       -0.018331503 0.045838043 0.03654748 -0.084553964
000240 19 c3 a0 bd c6 a1 ca bd 33 52 9b 3c ba ec ee bb
       -0.07849712 -0.09894137 0.018960094 -0.0072914036
000250 8d 49 62 3c fe 98 7d 3d bb 61 15 3d df e2 98 3c
       0.013811481 0.061913483 0.036470156 0.018662868
000260 cb 47 8b bd 1e d3 36 bd 97 64 5e 3d 9e e0 19 3d
       -0.06800803 -0.04463493 0.05429515 0.037567727
000270 8c a2 2e 3d fc 0d 0a bd d5 50 46 3d 87 71 c0 bc
       0.042635486 -0.033704743 0.04841693 -0.023491634
000280 9f 71 2d bd ed 23 b9 bc d1 51 67 3b d5 d6 c5 bc
       -0.042344686 -0.022600139 0.003529657 -0.024150291
000290 9a 37 e0 bc 04 4c f6 3c 1f cb cc bc df a2 5c bd
       -0.027370263 0.030065544 -0.0249992 -0.053866263
0002a0 99 6b 06 3d 67 b0 13 3d b9 c6 22 bd 41 66 7e bd
       0.032817457 0.036056902 -0.039740298 -0.062109236
0002b0 d0 89 ec bc 3e 54 19 3d aa eb 6d b9 01 a1 25 bd
       -0.028874308 0.037433855 -0.00022689873 -0.04043675
0002c0 57 74 21 3c 3d f2 27 bd 6f 4e 61 bc 28 80 84 3d
       0.009854398 -0.0410025 -0.01375161 0.06469756
0002d0 37 f1 58 3d 0d 95 3b 3d 7a 47 fd 3c f8 06 9c bc
       0.052964415 0.045796443 0.030917872 -0.019046292
0002e0 93 d8 40 3d a7 a9 bc bd 84 f0 ee bc 41 6b 21 bb
       0.04708154 -0.09212046 -0.029167421 -0.0024630579
0002f0 ec f5 aa 3a 2d 3c 69 3c 53 c3 d0 bd 77 94 25 bd
       0.0013043261 0.014235538 -0.10193505 -0.04042479
000300 f4 11 75 bb 01 df 51 bc 93 0f 69 b8 07 94 26 bd
       -0.0037394734 -0.012809516 -5.5566034e-05 -0.040668514
000310 2f c7 5c bb 24 5f 5c 3c 43 e1 da bc 04 63 e3 bc
       -0.0033688059 0.013450418 -0.026718741 -0.027757175
000320 aa af 2f ba ca 4c 32 bc f7 19 69 3c 99 a0 eb bc
       -0.0006701896 -0.010882566 0.014227382 -0.028763102
000330 8b b9 36 bd d8 35 a4 bd fe 7e cb 3c 05 a8 95 bd
       -0.04461054 -0.080180824 0.024840828 -0.07307438
000340 fa c0 06 bd 12 91 d6 bc 53 f5 3d bd 89 90 38 3d
       -0.03289888 -0.026192222 -0.046376538 0.045059714
000350 2d 3e a2 bd 73 7d 57 bb 6f f0 3b bd e2 93 f0 3c
       -0.07922015 -0.003288117 -0.045883592 0.029367391
000360 fc cc e8 bc c0 a6 45 bd 9f 41 b5 bc 2b 4b a7 3d
       -0.028418057 -0.04825473 -0.022126017 0.08168634
000370 ca 4a fc 3c c1 6c a4 bd 2e e9 5e bd 38 6c b8 3c
       0.030797381 -0.08028556 -0.054421596 0.02251254
000380 1b c1 f1 3c ba a6 5e bc ee 01 14 3c c9 1a ae bb
       0.029511025 -0.013589555 0.009033663 -0.0053132516
000390 0f 8f 3d 3c ad d0 92 3b 39 b9 49 3c 19 5b 34 bd
       0.011569752 0.0044804425 0.012312227 -0.04403219
0003a0 2e 6f 73 3d 04 58 2c bd 25 7a f3 3c 3f 79 ac bd
       0.0594322 -0.042076126 0.029721329 -0.08421563
0003b0 63 75 bc bc 54 c1 8b bc f0 27 a4 3c d1 85 f0 bc
       -0.023005193 -0.01705996 0.020038575 -0.029360684
0003c0 10 ed ad b9 31 e6 18 3d 36 7a bc bd 88 9f e1 bb
       -0.00033173757 0.037328903 -0.092029974 -0.0068854727
0003d0 13 42 01 bd f1 06 ab 3d ab 6e 99 bc ac db c1 3c
       -0.031557154 0.08350933 -0.018729528 0.023664318
0003e0 9f d8 d5 bc a8 53 df 3b 30 46 27 3d 39 4b b1 bb
       -0.02610427 0.0068153925 0.04083842 -0.0054105786
0003f0 bb 90 95 bb 3c 34 5c bd 48 ba 0d 3d 8c 02 61 3c
       -0.0045643724 -0.053760752 0.03460148 0.013733517
